…
      "    (ego_acc): LSTM(2, 256, num_layers=2, batch_first=True, dropout=0.3, bidirectional=True)\n",
      "    (ped_action): LSTM(1, 256, num_layers=2, batch_first=True, dropout=0.3, bidirectional=True)\n",
      "    (ped_look): LSTM(1, 256, num_layers=2, batch_first=True, dropout=0.3, bidirectional=True)\n",
      "    (traffic_light): LSTM(4, 256, num_layers=2, batch_first=True, dropout=0.3, bidirectional=True)\n",
      "    (static_context): LSTM(16, 256, num_layers=2, batch_first=True, dropout=0.3, bidirectional=True)\n",
      "  )\n",
      "  (attentions): ModuleDict(\n",
      "    (bbox): Attention(\n",
      "      (attention_net): Sequential(\n",
      "        (0): Linear(in_features=512, out_features=128, bias=True)\n",
      "        (1): Tanh()\n",
      "        (2): Linear(in_features=128, out_features=1, bias=True)\n",
      "      )\n",
      "    )\n",
      "    (ego_speed): Attention(\n",
      "      (attention_net): Sequential(\n",
      "        (0): Linear(in_features=512, out_features=128, bias=True)\n",
      "        (1): Tanh()\n",
      "        (2): Linear(in_features=128, out_features=1, bias=True)\n",
      "      )\n",
      "    )\n",
      "    (ego_acc): Attention(\n",
      "      (attention_net): Sequential(\n",
      "        (0): Linear(in_features=512, out_features=128, bias=True)\n",
      "        (1): Tanh()\n",
      "        (2): Linear(in_features=128, out_features=1, bias=True)\n",
      "      )\n",
      "    )\n",
      "    (ped_action): Attention(\n",
      "      (attention_net): Sequential(\n",
      "        (0): Linear(in_features=512, out_features=128, bias=True)\n",
      "        (1): Tanh()\n",
      "        (2): Linear(in_features=128, out_features=1, bias=True)\n",
      "      )\n",
      "    )\n",
      "    (ped_look): Attention(\n",
      "      (attention_net): Sequential(\n",
      "        (0): Linear(in_features=512, out_features=128, bias=True)\n",
      "        (1): Tanh()\n",
      "        (2): Linear(in_features=128, out_features=1, bias=True)\n",
      "      )\n",
      "    )\n",
      "    (traffic_light): Attention(\n",
      "      (attention_net): Sequential(\n",
      "        (0): Linear(in_features=512, out_features=128, bias=True)\n",
      "        (1): Tanh()\n",
      "        (2): Linear(in_features=128, out_features=1, bias=True)\n",
      "      )\n",
      "    )\n",
      "    (static_context): Attention(\n",
      "      (attention_net): Sequential(\n",
      "        (0): Linear(in_features=512, out_features=128, bias=True)\n",
      "        (1): Tanh()\n",
      "        (2): Linear(in_features=128, out_features=1, bias=True)\n",
      "      )\n",
      "    )\n",
      "  )\n",
      "  (dropout): Dropout(p=0.3, inplace=False)\n",
      "  (fc1): Linear(in_features=3584, out_features=1792, bias=True)\n",
      "  (relu): ReLU()\n",
      "  (fc2): Linear(in_features=1792, out_features=2, bias=True)\n",
      ")\n",
      "Total Trainable Parameters: 21,685,257\n",
      "------------------------------\n",
      "\n",
      "--- Starting Training ---\n"
     ]
    },
    {
     "data": {
      "application/vnd.jupyter.widget-view+json": {
       "model_id": "ea371e5caa4f4fd1b8e7574c54db0a17",
       "version_major": 2,
       "version_minor": 0
      },
…
