…
onal=True)\n    (ped_action): LSTM(1, 256, num_layers=2, batch_first=True, dropout=0.3, bidirectional=True)\n    (ped_look): LSTM(1, 256, num_layers=2, batch_first=True, dropout=0.3, bidirectional=True)\n    (ego_speed): LSTM(1, 256, num_layers=2, batch_first=True, dropout=0.3, bidirectional=True)\n    (ego_acc): LSTM(2, 256, num_layers=2, batch_first=True, dropout=0.3, bidirectional=True)\n    (static_context): LSTM(23, 256, num_layers=2, batch_first=True, dropout=0.3, bidirectional=True)\n  )\n  (attentions): ModuleDict(\n    (bbox): Attention(\n      (attention_net): Sequential(\n        (0): Linear(in_features=512, out_features=128, bias=True)\n        (1): Tanh()\n        (2): Linear(in_features=128, out_features=1, bias=True)\n      )\n    )\n    (ped_action): Attention(\n      (attention_net): Sequential(\n        (0): Linear(in_features=512, out_features=128, bias=True)\n        (1): Tanh()\n        (2): Linear(in_features=128, out_features=1, bias=True)\n      )\n    )\n    (ped_look): Attention(\n      (attention_net): Sequential(\n        (0): Linear(in_features=512, out_features=128, bias=True)\n        (1): Tanh()\n        (2): Linear(in_features=128, out_features=1, bias=True)\n      )\n    )\n    (ego_speed): Attention(\n      (attention_net): Sequential(\n        (0): Linear(in_features=512, out_features=128, bias=True)\n        (1): Tanh()\n        (2): Linear(in_features=128, out_features=1, bias=True)\n      )\n    )\n    (ego_acc): Attention(\n      (attention_net): Sequential(\n        (0): Linear(in_features=512, out_features=128, bias=True)\n        (1): Tanh()\n        (2): Linear(in_features=128, out_features=1, bias=True)\n      )\n    )\n    (static_context): Attention(\n      (attention_net): Sequential(\n        (0): Linear(in_features=512, out_features=128, bias=True)\n        (1): Tanh()\n        (2): Linear(in_features=128, out_features=1, bias=True)\n      )\n    )\n  )\n  (dropout): Dropout(p=0.3, inplace=False)\n  (fc1): Linear(in_features=512, out_features=256, bias=True)\n  (relu): ReLU()\n  (fc2): Linear(in_features=256, out_features=2, bias=True)\n)\nTrainable parameters: 13,224,206\n------------------------------\n\nCalculating class weights (for balanced dataset, should be ~1.0 each) …\nLoss weights → Class 0: 1.00, Class 1: 1.00\n\n--- Starting training ---\n","output_type":"stream"},{"name":"stderr","text":"/usr/local/lib/python3.10/dist-packages/torch/optim/lr_scheduler.py:62: UserWarning: T
…
