…
      "    (ped_action): LSTM(1, 256, num_layers=2, batch_first=True, dropout=0.4, bidirectional=True)\n",
      "    (ped_look): LSTM(1, 256, num_layers=2, batch_first=True, dropout=0.4, bidirectional=True)\n",
      "    (ego_speed): LSTM(1, 256, num_layers=2, batch_first=True, dropout=0.4, bidirectional=True)\n",
      "    (ego_acc): LSTM(2, 256, num_layers=2, batch_first=True, dropout=0.4, bidirectional=True)\n",
      "    (static_context): LSTM(23, 256, num_layers=2, batch_first=True, dropout=0.4, bidirectional=True)\n",
      "  )\n",
      "  (attentions): ModuleDict(\n",
      "    (bbox): Attention(\n",
      "      (attention_net): Sequential(\n",
      "        (0): Linear(in_features=512, out_features=128, bias=True)\n",
      "        (1): Tanh()\n",
      "        (2): Linear(in_features=128, out_features=1, bias=True)\n",
      "      )\n",
      "    )\n",
      "    (ped_action): Attention(\n",
      "      (attention_net): Sequential(\n",
      "        (0): Linear(in_features=512, out_features=128, bias=True)\n",
      "        (1): Tanh()\n",
      "        (2): Linear(in_features=128, out_features=1, bias=True)\n",
      "      )\n",
      "    )\n",
      "    (ped_look): Attention(\n",
      "      (attention_net): Sequential(\n",
      "        (0): Linear(in_features=512, out_features=128, bias=True)\n",
      "        (1): Tanh()\n",
      "        (2): Linear(in_features=128, out_features=1, bias=True)\n",
      "      )\n",
      "    )\n",
      "    (ego_speed): Attention(\n",
      "      (attention_net): Sequential(\n",
      "        (0): Linear(in_features=512, out_features=128, bias=True)\n",
      "        (1): Tanh()\n",
      "        (2): Linear(in_features=128, out_features=1, bias=True)\n",
      "      )\n",
      "    )\n",
      "    (ego_acc): Attention(\n",
      "      (attention_net): Sequential(\n",
      "        (0): Linear(in_features=512, out_features=128, bias=True)\n",
      "        (1): Tanh()\n",
      "        (2): Linear(in_features=128, out_features=1, bias=True)\n",
      "      )\n",
      "    )\n",
      "    (static_context): Attention(\n",
      "      (attention_net): Sequential(\n",
      "        (0): Linear(in_features=512, out_features=128, bias=True)\n",
      "        (1): Tanh()\n",
      "        (2): Linear(in_features=128, out_features=1, bias=True)\n",
      "      )\n",
      "    )\n",
      "  )\n",
      "  (dropout): Dropout(p=0.4, inplace=False)\n",
      "  (fc1): Linear(in_features=512, out_features=256, bias=True)\n",
      "  (relu): ReLU()\n",
      "  (fc2): Linear(in_features=256, out_features=2, bias=True)\n",
      ")\n",
      "Trainable parameters: 13,224,206\n",
      "------------------------------\n",
      "\n",
      "Calculating class weights (for oversampled balanced dataset, should be ~1.0 each) …\n",
      "Loss weights → Class 0: 1.00, Class 1: 1.00\n",
      "\n",
      "--- Starting training ---\n"
     ]
    },
    {
     "name": "stderr",
     "output_type": "stream",
…
