…
plain":"Processing set06:   0%|          | 0/9 [00:00<?, ?it/s]","application/vnd.jupyter.widget-view+json":{"version_major":2,"version_minor":0,"model_id":""}},"metadata":{}},{"name":"stdout","text":"Loaded 39234 sequences.\nClass distribution: 0=31532, 1=7702\nMultiStreamAdaptiveLSTM(\n  (lstms): ModuleDict(\n    (bbox): LSTM(4, 256, num_layers=2, batch_first=True, dropout=0.3, bidirectional=True)\n    (pose): LSTM(34, 256, num_layers=2, batch_first=True, dropout=0.3, bidirectional=True)\n  )\n  (attentions): ModuleDict(\n    (bbox): Attention(\n      (attention_net): Sequential(\n        (0): Linear(in_features=512, out_features=128, bias=True)\n        (1): Tanh()\n        (2): Linear(in_features=128, out_features=1, bias=True)\n      )\n    )\n    (pose): Attention(\n      (attention_net): Sequential(\n        (0): Linear(in_features=512, out_features=128, bias=True)\n        (1): Tanh()\n        (2): Linear(in_features=128, out_features=1, bias=True)\n      )\n    )\n  )\n  (dropout): Dropout(p=0.3, inplace=False)\n  (fc1): Linear(in_features=1024, out_features=512, bias=True)\n  (relu): ReLU()\n  (fc2): Linear(in_features=512, out_features=2, bias=True)\n)\n\n--- Starting Training ---\n","output_type":"stream"},{"output_type":"display_data","data":{"text/plain":"Training:   0%|          | 0/5319 [00:00<?, ?it/s]","application/vnd.jupyter.widget-view+json":{"version_major":2,"version_minor":0,"model_id":""}},"metadata":{}},{"output_type":"display_data","data":{"text/plain":"Evaluating:   0%|          | 0
…
 | 0/9 [00:00<?, ?it/s]","application/vnd.jupyter.widget-view+json":{"version_major":2,"version_minor":0,"model_id":""}},"metadata":{}},{"name":"stdout","text":"Loaded 73370 sequences in total.\nClass distribution: 0=62926, 1=10444\n\n--- Model Architecture ---\nMultiStreamAdaptiveLSTM(\n  (lstms): ModuleDict(\n    (bbox): LSTM(4, 256, num_layers=2, batch_first=True, dropout=0.3, bidirectional=True)\n    (pose): LSTM(34, 256, num_layers=2, batch_first=True, dropout=0.3, bidirectional=True)\n  )\n  (attentions): ModuleDict(\n    (bbox): Attention(\n      (attention_net): Sequential(\n        (0): Linear(in_features=512, out_features=128, bias=True)\n        (1): Tanh()\n        (2): Linear(in_features=128, out_features=1, bias=True)\n      )\n    )\n    (pose): Attention(\n      (attention_net): Sequential(\n        (0): Linear(in_features=512, out_features=128, bias=True)\n        (1): Tanh()\n        (2): Linear(in_features=128, out_features=1, bias=True)\n      )\n    )\n  )\n  (dropout): Dropout(p=0.3, inplace=False)\n  (fc1): Linear(in_features=1024, out_features=512, bias=True)\n  (relu): ReLU()\n  (fc2): Linear(in_features=512, out_features=2, bias=True)\n)\n------------------------------\n\n--- Starting Training ---\n","output_type":"stream"},{"output_type":"display_data","data":{"text/plain":"Training:   0%|          | 0/9537 [00:00<?, ?it/s]","application/vnd.jupyter.widget-view+json":{"version_major":2,"version_minor":0,"model_id":""}},"metadata":{}},{"output_type":"display_data","data":{"text/plain"
…
tal.\nClass distribution: 0=62926, 1=10444\nInitializing model with streams: ['bbox', 'ego_speed']\n  - Adding stream 'bbox' with input size 4\n  - Adding stream 'ego_speed' with input size 1\n  Combined feature dimension: 1024\n\n--- Model Architecture ---\nMultiStreamAdaptiveLSTM(\n  (lstms): ModuleDict(\n    (bbox): LSTM(4, 256, num_layers=2, batch_first=True, dropout=0.3, bidirectional=True)\n    (ego_speed): LSTM(1, 256, num_layers=2, batch_first=True, dropout=0.3, bidirectional=True)\n  )\n  (attentions): ModuleDict(\n    (bbox): Attention(\n      (attention_net): Sequential(\n        (0): Linear(in_features=512, out_features=128, bias=True)\n        (1): Tanh()\n        (2): Linear(in_features=128, out_features=1, bias=True)\n      )\n    )\n    (ego_speed): Attention(\n      (attention_net): Sequential(\n        (0): Linear(in_features=512, out_features=128, bias=True)\n        (1): Tanh()\n        (2): Linear(in_features=128, out_features=1, bias=True)\n      )\n    )\n  )\n  (dropout): Dropout(p=0.3, inplace=False)\n  (fc1): Linear(in_features=1024, out_features=512, bias=True)\n  (relu): ReLU()\n  (fc2): Linear(in_features=512, out_features=2, bias=True)\n)\nTotal Trainable Parameters: 4,878,340\n------------------------------\n\n--- Starting Training ---\n","output_type":"stream"},{"output_type":"display_data","data":{"text/plain":"Training:   0%|          | 0/9537 [00:00<?, ?it/s]","application/vnd.jupyter.widget-view+json":{"version_major":2,"version_minor":0,"model_id":"103d2307562c42ce82ac9c200e38cf
…
\n    (ped_action): LSTM(1, 256, num_layers=2, batch_first=True, dropout=0.3, bidirectional=True)\n    (ped_look): LSTM(1, 256, num_layers=2, batch_first=True, dropout=0.3, bidirectional=True)\n    (ped_occlusion): LSTM(1, 256, num_layers=2, batch_first=True, dropout=0.3, bidirectional=True)\n    (traffic_light): LSTM(4, 256, num_layers=2, batch_first=True, dropout=0.3, bidirectional=True)\n    (static_context): LSTM(16, 256, num_layers=2, batch_first=True, dropout=0.3, bidirectional=True)\n  )\n  (attentions): ModuleDict(\n    (bbox): Attention(\n      (attention_net): Sequential(\n        (0): Linear(in_features=512, out_features=128, bias=True)\n        (1): Tanh()\n        (2): Linear(in_features=128, out_features=1, bias=True)\n      )\n    )\n    (pose): Attention(\n      (attention_net): Sequential(\n        (0): Linear(in_features=512, out_features=128, bias=True)\n        (1): Tanh()\n        (2): Linear(in_features=128, out_features=1, bias=True)\n      )\n    )\n    (ego_speed): Attention(\n      (attention_net): Sequential(\n        (0): Linear(in_features=512, out_features=128, bias=True)\n        (1): Tanh()\n        (2): Linear(in_features=128, out_features=1, bias=True)\n      )\n    )\n    (ego_acc): Attention(\n      (attention_net): Sequential(\n        (0): Linear(in_features=512, out_features=128, bias=True)\n        (1): Tanh()\n        (2): Linear(in_features=128, out_features=1, bias=True)\n      )\n    )\n    (ego_gyro): Attention(\n      (attention_net): Sequential(\n        (0): Linear(in_features=512, out_features=128, bias=True)\n        (1): Tanh()\n        (2): Linear(in_features=128, out_features=1, bias=True)\n      )\n    )\n    (ped_action): Attention(\n      (attention_net): Sequential(\n        (0): Linear(in_features=512, out_features=128, bias=True)\n        (1): Tanh()\n        (2): Linear(in_features=128, out_features=1, bias=True)\n      )\n    )\n    (ped_look): Attention(\n      (attention_net): Sequential(\n        (0): Linear(in_features=512, out_features=128, bias=True)\n        (1): Tanh()\n        (2): Linear(in_features=128, out_features=1, bias=True)\n      )\n    )\n    (ped_occlusion): Attention(\n      (attention_net): Sequential(\n        (0): Linear(in_features=512, out_features=128, bias=True)\n        (1): Tanh()\n        (2): Linear(in_features=128, out_features=1, bias=True)\n      )\n    )\n    (traffic_light): Attention(\n      (attention_net): Sequential(\n        (0): Linear(in_features=512, out_features=128, bias=True)\n        (1): Tanh()\n        (2): Linear(in_features=128, out_features=1, bias=True)\n      )\n    )\n    (static_context): Attention(\n      (attention_net): Sequential(\n        (0): Linear(in_features=512, out_features=128, bias=True)\n        (1): Tanh()\n        (2): Linear(in_features=128, out_features=1, bias=True)\n      )\n    )\n  )\n  (dropout): Dropout(p=0.3, inplace=False)\n  (fc1): Linear(in_features=5120, out_features=2560, bias=True)\n  (relu): ReLU()\n  (fc2): Linear(in_features=2560, out_features=2, bias=True)\n)\nTotal Trainable Parameters: 34,959,372\n------------------------------\n\n--- Starting Training ---\n","output_type":"stream"},{"output_type":"display_data","data":{"text/plain":"Training:   0%|          | 0/10421 [00:00<?, ?it/s]","application/vnd.jupyter.widget-view+json":{"version_major":2,"version_minor":0,"model_id":""}},"metadata":{}},{"output
…
